ProG/Experiment/pre_trained_model/PROTEINS/GraphMAE.GAT.128hidden_dim.pth (torch, 73421 bytes, 8 tensors)

conv_layers.0.att_src f4 [1, 1, 128]
00000000: 05a2 ffbd 3a4f 003e f581 aabd b081 fe3d
00000010: 5c7f 42bd de96 d53d 7678 c93c 55f6 a43d
00000020: 0b7d 1d3e 3bb0 e33d 7056 423e 32c3 0cbd
00000030: 136d 33be 7270 5ebb c62b 0abe 657c 3a3d
00000040: 92b3 d23d 48e8 0d3e d630 443e 0f43 0abe
00000050: add4 39be 2f5a 92bd 2267 3ebd bf97 4ebd
00000060: 9dce 47bc 7877 013e 83e0 16be fbeb 603e
00000070: 0b09 05be 789d 9ebd 34b4 c7bb ea3f a93d
00000080: 22b7 533c 7dee 31be 328f 0cbe 5471 433e
00000090: a627 223e 2c83 333e 4b9b 25be 4dd2 c13d
000000a0: 70c4 9c3d 80dc 333e e19a 40be a4f7 d63c
000000b0: 4799 09be b89e 9b3d 2a20 933c 2df8 0cbe
000000c0: 57f4 8ebd 8565 08be 0364 953d 89d5 c6bd
000000d0: 68c3 4e3e 1db3 9c3d 8a4d c8bd bde4 143d
000000e0: 15cd 30bd 2970 0c3e 0c0d c1bd d1de 883d
000000f0: d4a8 f33a 1f3c 473d 86e9 273e 10db 203e
00000100: f9a5 18be daa1 da3c 4de2 36be be44 a9ba
00000110: a835 f63d 2700 36be aac6 0a3e 35be 903d
00000120: 0a59 a33d c4ce 29be 0e96 563d 9de8 50bd
00000130: 953c 273d 2af8 92bc f004 193d e7b1 813d
00000140: ac87 273e 7cb9 1b3e e741 523e dbb3 c639
00000150: 1219 21be b2bc 363e eb02 8bbc 6f5c 3cbd
00000160: b735 04be 5abf 0fbe 4ad5 cdbd 54f0 2e3e
00000170: a92e d9bd 0ba2 9fbd 4eda da3d c98e 82bd
00000180: 553e 1b3e 26d1 52be 55b6 413d 57f8 bfbd
00000190: a2c4 913d d9bd 033e 3057 82bd c5bf 10be
000001a0: b3e6 edbd 3827 42be 8b33 92bd 680d ca3c
000001b0: 0b91 efbb edd9 5d3e 4cc2 26be ce90 5abd
000001c0: d42d 9dbd 37f1 11bd ca06 9abc 6434 963c
000001d0: 1c1f 2c3e f590 a63c f807 7bbe b8b5 22be
000001e0: 62ca 07be 2623 a03d a138 5dbe 5fef 16be
000001f0: d5c1 48be 34bd f3bc 2296 f13d 5b4b f3bd
-0.12482075 0.12530223 -0.083255686 0.1242708 -0.04748474 0.10429166 0.024593573 0.080547966
0.15379731 0.11117598 0.18978286 -0.03436584 -0.17522077 -0.0033941534 -0.1349326 0.045528788
0.102881566 0.1385814 0.19159254 -0.13502143 -0.18147536 -0.071461074 -0.046485074 -0.050437685
-0.012195257 0.1264323 -0.14734082 0.2196502 -0.12991731 -0.077448785 -0.00609448 0.08264144
0.01292208 -0.17376132 -0.137265 0.190862 0.15835437 0.17530507 -0.16172521 0.0946394
0.07654655 0.17564583 -0.18809082 0.026241131 -0.13437377 0.075986326 0.017959673 -0.13766547
-0.06980198 -0.13319977 0.07294466 -0.09708697 0.20191729 0.07651351 -0.097804144 0.036350954
-0.04316433 0.1371466 -0.094263166 0.06683124 0.0018589743 0.04864132 0.16397676 0.15708566
-0.14907064 0.026688505 -0.17859764 -0.0012914164 0.12021953 -0.17773496 0.13552347 0.07067529
0.07975967 -0.16582781 0.052389197 -0.051003087 0.04082926 -0.0179406 0.037358224 0.0633276
0.16360348 0.15207475 0.20532952 0.00037899506 -0.1573222 0.17845419 -0.016969165 -0.04598659
-0.12911116 -0.14037839 -0.10050447 0.17083865 -0.10604603 -0.07794579 0.106861696 -0.0637489
0.15160497 -0.20587596 0.047293026 -0.09373539 0.07117583 0.1286539 -0.06364286 -0.14135654
-0.11616268 -0.18960273 -0.07138737 0.024664596 -0.0073109916 0.21665163 -0.16285056 -0.053360753
-0.07674757 -0.03563043 -0.018802065 0.018335529 0.16808742 0.020332793 -0.24514759 -0.15889633
-0.13260797 0.07819204 -0.21603633 -0.1473975 -0.19605191 -0.029753305 0.11796214 -0.11879607

conv_layers.0.att_dst f4 [1, 1, 128]
00000000: 2d70 263d 5e99 3fbe 2a73 a2bd d81d 0e3e
00000010: 32b4 9dbd 9aa4 663c 36e4 0b3e 97db 2abe
00000020: 23c2 863d ce98 3b3e dd86 4f3d 5f1f c73d
00000030: 45e0 ce3d 6bdf d7bd 48c2 34be 4d68 00be
00000040: 789b 063d a8b5 c5bd 33ac c03d 7ab9 853d
00000050: 0aa6 86bd e559 96bc 6fae 3bbe b4b9 10be
00000060: 7484 6abd 8a6e 0f3d c372 333c 5ffb c33d
00000070: d43b b3bd 0801 113d 5957 40be 160b 1b3e
00000080: 2663 c03c a8fe 993d d0e2 4cbd b8e8 43be
00000090: 5c68 00bd a86a fabd 6e40 8ebd 03c2 683d
000000a0: 2c64 5b3e d910 9ebd 0b42 0bbb af82 283e
000000b0: ba57 a1bd 0ecc fd3d d06e 44be 943f 343e
000000c0: e1a1 953d 9c1b 7b3d c2cc 743d df6e 133e
000000d0: b70d 973d 2d6a e2bd db5a d53d 3ab4 ff3d
000000e0: d938 c5bb bdc3 c7bd 06a2 453d bd5c ff3d
000000f0: 7995 11be a85c 833d fe8d 1c3d c2a4 44be
00000100: f0db 873d 2f68 243e dd5f 88bd 890e 013e
00000110: 8bbf 23bc 8c77 0d3e a164 b73d 42fe 0f3e
00000120: 72ec d43d 2493 08bd 772c 45be 41ca cb3d
00000130: ff81 b5bc 9531 a53d 2453 343e 943c 273e
00000140: 54d9 9ebd 5de5 353e cd7b 93bd eda1 24be
00000150: 0271 f13d 5764 6fbd cf9c 47be dcf7 59bd
00000160: 60b6 40be 4960 2e3d 009a 083d 96ec 41be
00000170: 94e5 a53b 5613 0e3d fd85 bf3d 4917 15be
00000180: 751c b43c edae f6bd f57f dcbb 171d 363e
00000190: f83d 00bc c14e 2fbe 4629 ea3d 34ef 99bd
000001a0: eaf9 c6bd b5e1 633d b60c 07bd 7891 cabd
000001b0: d1ff 0a3d 5898 c6bd e48b 283d 22dc 35be
000001c0: 3ea4 1c3d b11d 15be f444 0abd 1406 193d
000001d0: 7e2b 94bd 0074 9d3d 2ff2 3c3e 6e5f 303e
000001e0: 01e6 f83d 51a2 2f3d 3ca5 84bd 5f42 debb
000001f0: 597a 423e 5b88 033e b1f3 7fbd 5f4f d03b
0.040634323 -0.18710849 -0.07932122 0.13878572 -0.07700385 0.01407733 0.13661274 -0.1668533
0.065799974 0.18320009 0.050665725 0.097227804 0.1010137 -0.105406605 -0.17652237 -0.12539788
0.03286311 -0.09653789 0.094078444 0.065295175 -0.06574638 -0.018353412 -0.1832826 -0.1413334
-0.057255223 0.035017528 0.010952654 0.095694296 -0.08751646 0.035401374 -0.1878332 0.15140948
0.023484778 0.07519275 -0.050020993 -0.19131744 -0.031349525 -0.12227374 -0.06945883 0.05682565
0.21424931 -0.07718057 -0.0021249081 0.16456102 -0.07878061 0.12392436 -0.19182897 0.17602378
0.073062666 0.061305627 0.059765585 0.14397763 0.07375663 -0.11055408 0.1041772 0.12485547
-0.0060187397 -0.09754131 0.04825022 0.1246886 -0.14217176 0.06414157 0.03822135 -0.19203475
0.066337466 0.16055368 -0.066589095 0.12603201 -0.009994398 0.13815135 0.0895474 0.14061835
0.10396661 -0.03334345 -0.19255243 0.09950686 -0.022156714 0.08066098 0.1760984 0.16331702
-0.07756296 0.17763276 -0.072013475 -0.16077395 0.11789133 -0.0584453 -0.19493411 -0.053214893
-0.1881957 0.042572293 0.03334999 -0.18937907 0.0050627682 0.03468641 0.09351728 -0.14559664
0.021986226 -0.12045083 -0.006729121 0.17784534 -0.0078272745 -0.17119886 0.114336535 -0.075163275
-0.09715636 0.055635173 -0.032971106 -0.09891027 0.03393537 -0.09697026 0.041149035 -0.17759755
0.03824257 -0.14562108 -0.033757165 0.037359312 -0.07234858 0.07688141 0.1845176 0.17223904
0.12153245 0.042879406 -0.064768285 -0.0067828144 0.18991984 0.12844984 -0.06248826 0.006357118

conv_layers.0.bias f4 [128]
00000000: a2e4 04bc 3c83 b23b d160 31bc d6ea cebb
00000010: b8b0 da3b b342 85bb 43fc 0e3c 4ccb 10bc
00000020: a8c4 353c 76c4 4f3c 4e28 21bb a433 9cbb
00000030: 267d e0bb d1d9 d6bb f593 073c 76c7 ea3b
00000040: 46c3 903b 3a21 463c 09b3 9f3c 17ed dcbb
00000050: 89f6 41bc 9d9e f43b 1215 58bc 12a9 63bb
00000060: c925 1abc 1bbb 913b 4a47 bfbb 2cb1 2b3c
00000070: c177 efba c633 ff3b e1f4 cb3b 23f2 14bc
00000080: a1de 05bb 9247 9f3c 9a22 9f3b 9af8 8bbb
00000090: 1dbd 07bc 840b 12bc b031 df3b d0b2 9c3b
000000a0: e597 d03b 3e40 4b39 feb3 c93b c315 fd3b
000000b0: f3d6 1e3c 2192 363c 435a 013d 397d eebb
000000c0: 1b2a 08bc 493e a53b 4ca8 643b 3f1f b93b
000000d0: d2a0 4b3c dc8f 5e3b 96da 05bc b75b e73b
000000e0: ec78 0cbc 3aee 0fbc 7f15 8c3b f85a b5bb
000000f0: 47e6 02bc ed0d ca3b 97b2 0dbc 9da2 8a3c
00000100: 0b4c c83b 03fe 7e3b 9d36 03bc 0157 6a3c
00000110: 8a38 a7bb 122f 463b 42e7 9f3b 7774 5c3b
00000120: f0a3 2f3c 6825 4a3c ad6e 0d3c bf0c 7d3b
00000130: 373c ad39 5c11 4e3b c07d b03b 6194 053d
00000140: 0cb6 f9bb d017 0abc f5b0 23bc 8110 ef3b
00000150: 2bc5 cbbb c2e0 d4bb 502b 0d3c 4b63 1cb8
00000160: 7516 893b 26b8 58bb a5be 05bc 3c63 f4b8
00000170: 6019 003c cd4a bc3b 4085 c93b 4341 393b
00000180: 9b63 d6bb 34ca 0e3c 902d 4b3b 8a5b e0bb
00000190: 2f8b e1bb 6c7f 493c 622a 21bc bf12 d83b
000001a0: c476 bebb 043d debb edd2 bfbb 3535 d93c
000001b0: 907d bebb 080c 3bbc 68bd c03b dfa8 083c
000001c0: 2e40 0c3a 241c 7cbc 9334 07bc 8c3c ffbb
000001d0: b954 e6b9 4f39 bb39 eb94 103b 28a3 84bc
000001e0: 1efd e73b b1f2 b63c e729 d2bb 3232 e6bb
000001f0: 4561 b7bb 15a7 d8bb eef5 25bc eba9 80bc
-0.008111151 0.0054477733 -0.0108263055 -0.0063146157 0.0066738985 -0.004066789 0.008727136 -0.008837532
0.01109425 0.012681117 -0.0024590674 -0.004766898 -0.0068508564 -0.0065567275 0.008275022 0.007164891
0.0044178097 0.012092883 0.01949455 -0.0067421305 -0.011838564 0.0074651972 -0.013188617 -0.0034738225
-0.009408423 0.0044473535 -0.0058373557 0.010479253 -0.0018269942 0.0077881543 0.00622426 -0.009090933
-0.0020426887 0.019443307 0.0048564197 -0.004271579 -0.008284834 -0.008913878 0.006811343 0.0047820583
0.0063657635 0.0001938352 0.00615549 0.0077235415 0.009694803 0.011143238 0.03158022 -0.0072781113
-0.00831082 0.0050428254 0.0034890352 0.005649477 0.012428479 0.0033960259 -0.008169791 0.007060494
-0.008573752 -0.008784825 0.0042750235 -0.005534526 -0.007989473 0.006166211 -0.008648536 0.016923243
0.0061125807 0.0038908727 -0.008008626 0.01430297 -0.0051031755 0.0030240458 0.004879863 0.0033638754
0.010720238 0.01233802 0.008632344 0.0038612334 0.00033041995 0.0031443452 0.0053860843 0.03261221
-0.0076205786 -0.008428529 -0.00999092 0.0072956686 -0.0062185726 -0.00649652 0.008616284 -3.7285772e-05
0.0041835853 -0.0033068745 -0.008163129 -0.000116533105 0.00781855 0.0057462216 0.006149918 0.0028267659
-0.0065426356 0.008715201 0.00310025 -0.00684685 -0.006883047 0.012298446 -0.009836765 0.0065940316
-0.005812498 -0.006782176 -0.0058540017 0.026514629 -0.005813308 -0.011416443 0.005881954 0.008341043
0.00053501397 -0.015387569 -0.008252281 -0.0077892 -0.00043932142 0.00035710118 0.0022061418 -0.01619108
0.0070797345 0.022332521 -0.0064136866 -0.0070250267 -0.005596312 -0.0066117146 -0.010129435 -0.015706023

conv_layers.0.lin.weight f4 [128, 3]
00000000: ba09 3abe 54de 503d bb16 2a3d 3569 373e
00000010: a577 283e b578 4f3c c825 4c3d 062b b23b
00000020: 02df 0b3e c93f 50be 48fb 603d a6b1 df3c
00000030: 8ec5 59bd 90df 6e3c de6c 563c 4b81 e0bd
00000040: 419d 6f3b 9421 503e fd64 b53d 18f6 d8bd
00000050: 7ec4 b5bd 5de6 063e fe8e dfbc 0701 0f3e
00000060: 0af3 5a3e 4bf4 acbd d76d 31bd c29d a13d
00000070: ac47 6bbe 8406 ecbd e10b 3cbe a2cb 04bd
00000080: e0f9 863d 1cba cf3d 9af1 a5bd 7e59 a8bd
00000090: 8f79 e83d 80ae 2b3e bb20 e63d 5d3c b43d
000000a0: d92a 6bbb 0411 473e 2302 54be 6ba3 913d
000000b0: 63b0 d8bd d1f1 3d3e c658 143d 2797 08be
000000c0: a80b 2e3e 267e 6e3d 681f b13d 14d6 97bd
000000d0: 89ce f8bd f51f debd afa6 6abe dd62 0f3d
000000e0: 7777 833d 3dda 303e 402a 00bd 4e37 db3d
000000f0: deae 303e 8d59 26be f743 71be 790d 2abe
00000100: e357 4bbe d46c e0bd 66dd a53c c27d 23be
00000110: 8977 cebd a98d 0abe 3dc0 8c3d ce73 353e
00000120: 99e7 483e a97b 953c 89cf a6bd 282a 123d
00000130: bd39 343e 0b1a 473e d132 b1bb 0d58 14ba
00000140: 21b3 8bbd 52cc 88bd ea4e 31be 14f8 633e
00000150: 0898 193e bd2d 39be 975a 0abe f140 233e
00000160: fbfa 47be 2c3b a3bc cf3d 2a3e 3ded 4c3e
00000170: 1b28 46be e8f2 0a3e 80f3 3bbe 38f2 693d
00000180: fe63 573d 4a2c 17be 2f00 063e 15d7 3cbc
00000190: 1d3c 0abe 3b7e 113e 2be7 7dbc a06a 8e3d
000001a0: eace 4fbe 0fa2 f33d a8d9 2a3e 78e5 213a
000001b0: 5aed c23d 3d75 60bd b2c4 c5bc adad 31bd
000001c0: fb59 1c3d 8aea d03d 32b6 ae3d e12a 6cbd
000001d0: a091 0ebe a66c 43be 1d62 1e3e 0ce7 55bd
000001e0: f172 bebd d6fe 41be 7612 dabd 7e2d 6d3d
000001f0: 910d 3c3d ea11 813e ae1b e9bd 7ef1 453e
00000200: 6a42 cfbd 76dc 29bd 1899 52bd 2330 c6bd
00000210: f8b6 f0bd eefa 313d ba6e 3e3c 5387 31be
00000220: 5597 fd3c 571d 82bc 2785 c6bd b097 43be
00000230: 8547 203e 78cd 753d 1795 663d 723c 55be
00000240: a29e ba3d b439 9a3a 1930 c2bd fb8d f23d
00000250: a212 89bc dd4d 4abe 5e00 80bd 9d7d a53d
00000260: 378a 43bd 5752 1cbe bf47 993c 5e3c 35be
00000270: e94c 0fbd be76 7dbd dbe4 413e 10f9 193e
00000280: 81be 573e 8699 efbd 9a1e 443e 6c70 f43c
00000290: a071 6fbe 6f58 f23c 1020 003e 4656 93bd
000002a0: 9c0d e13d f204 323e ba22 2bbe a6a2 f13d
000002b0: 4d5a ea3d 7206 e9bd d920 66bd 2347 04be
000002c0: ab2e 963c d48e 55be b403 60bd a20c cebd
000002d0: e088 cdbc b95d 0b3e 7209 863d 2493 383d
000002e0: 89e8 7abc 3984 b93d ef48 493e 6c3d 3e3c
000002f0: aa2d e53d f229 edbd c4cb d4bd a7f6 1e3e
00000300: 5c66 4b3d 8633 703d f32b 0f3e 10cd 1ebd
00000310: d2ab 033e 0e6a 92bd 02fd adbd b2ae 0f3e
00000320: ce39 22bd b6e3 4b3e 7c11 bcbd acfd 473e
00000330: 6e7d 58be 4db2 98bd 464e 1ebc bc6c 55be
00000340: 0568 ba3d bfe2 893d 0985 1e3e e983 debd
00000350: 920e 0dbe 21f7 37bd 5fe8 b2bd 9a37 03be
00000360: 6a37 fabd d096 fe3d 8b93 e13c b900 513e
00000370: 5c05 efbd c6f2 773d f8e1 65bd 671b e4bd
00000380: 33bb 363e e8d9 e3bd 5b11 cebd c961 3cbd
00000390: 6cc4 11be 6fe0 873d 9926 133e bf6d 223d
000003a0: 47f9 b53d b16a 03be 5d50 853d c34f abbd
000003b0: b9a7 1c3e cd17 e5bc 7379 32be 17d5 d0bc
000003c0: cd59 9cbd d163 f33c 1af6 033b 0277 953d
000003d0: 0e53 1cbe 6f99 aabd 4545 eabd 4856 4b3e
000003e0: 3368 f93d 2991 0a3e 1013 56bd daba 58bd
000003f0: b8db a6bd 01a2 363d 3143 303e 251a 453e
-0.18167773 0.05099328 0.041525584 0.17911227 0.16451891 0.012663056 0.04984072 0.0054372577
0.1365929 -0.20336832 0.05492714 0.027306389 -0.05316692 0.014579669 0.013087479 -0.10962161
0.0036562236 0.20325309 0.088571526 -0.10593814 -0.088753685 0.13173814 -0.027289864 0.13965236
0.21381775 -0.08445033 -0.043317642 0.07891418 -0.2297656 -0.1152468 -0.18363906 -0.032420762
0.065906286 0.101429194 -0.081027225 -0.08220194 0.113513105 0.16765785 0.112367116 0.08800576
-0.0035883693 0.19440085 -0.2070394 0.07111248 -0.10580518 0.18549277 0.036217473 -0.1333891
0.16996634 0.058225773 0.086485684 -0.07413879 -0.121487685 -0.10845939 -0.22915147 0.035006393
0.064192705 0.17270751 -0.031290293 0.10703908 0.17254207 -0.16245098 -0.23561083 -0.16606702
-0.19857745 -0.10958257 0.020247173 -0.15965942 -0.10081393 -0.13530602 0.06872604 0.17719957
0.19619597 0.018247442 -0.08145053 0.035684735 0.1760015 0.19443528 -0.005407669 -0.00056588725
-0.068212755 -0.06679596 -0.1731526 0.22262603 0.14999402 -0.18083854 -0.1351112 0.15942742
-0.19529335 -0.019925676 0.1662514 0.20012374 -0.19351237 0.13569224 -0.18354607 0.057115763
0.052585594 -0.14762989 0.13086008 -0.011525889 -0.13499494 0.1420831 -0.015497009 0.06953931
-0.20293775 0.118961446 0.16684592 0.0006175856 0.095179275 -0.054799307 -0.024141643 -0.04337852
0.03817175 0.10200985 0.08530845 -0.05765808 -0.13922739 -0.19084415 0.15467115 -0.052222297
-0.09299267 -0.18944868 -0.106480524 0.057904713 0.045911375 0.2520898 -0.113822326 0.19330403
-0.10120089 -0.041470014 -0.051415533 -0.0967715 -0.117536485 0.043452196 0.011623079 -0.17336778
0.03095595 -0.015883131 -0.096933655 -0.19100833 0.15652283 0.060010403 0.056294527 -0.2082384
0.09112288 0.0011766464 -0.0948183 0.11843487 -0.016732518 -0.19756265 -0.0625007 0.080805995
-0.047739234 -0.15265785 0.018710969 -0.1769881 -0.034985457 -0.06188082 0.18934958 0.15036416
0.21068765 -0.11699204 0.19152299 0.029838763 -0.23383188 0.029583184 0.12512231 -0.0719419
0.10988924 0.17384699 -0.16712466 0.11798601 0.11443005 -0.113781825 -0.05618367 -0.12917762
0.0183328 -0.20855266 -0.05469103 -0.10061003 -0.025089681 0.13609971 0.0654477 0.0450622
-0.01531423 0.090584226 0.19656728 0.011611324 0.1119035 -0.11580266 -0.10390428 0.15523778
0.049658164 0.058642887 0.13981609 -0.03876978 0.12858513 -0.071491346 -0.08495523 0.14031485
-0.039605908 0.19911084 -0.091830224 0.19530362 -0.21141598 -0.07455883 -0.0096622165 -0.2084226
0.091018714 0.067327015 0.15480436 -0.108650036 -0.1377509 -0.044913415 -0.087357275 -0.12814179
-0.12217601 0.12431109 0.027536174 0.20410432 -0.11670944 0.06053426 -0.056123704 -0.11138039
0.17844848 -0.11125547 -0.10061904 -0.045991693 -0.14235085 0.06634604 0.14370193 0.039655443
0.088854365 -0.12833668 0.06509469 -0.08364823 0.15298356 -0.02796545 -0.17429142 -0.025492234
-0.07634316 0.029710682 0.0020135702 0.072980896 -0.15266058 -0.083300464 -0.11438993 0.19857132
0.121780775 0.13531937 -0.052264273 -0.05291257 -0.08147377 0.044588093 0.17213131 0.19248255

conv_layers.1.att_src f4 [1, 1, 128]
00000000: 3afc d93a 73a1 0a3c ec98 05be d975 253e
00000010: 3e03 3dbe 4500 85bd 5b88 aa3d 3d37 1fbe
00000020: 34b1 253c 65cf 1abd ac49 9b3c cb6b cb3c
00000030: 312f f43c 9314 013d a109 53bc c6da 313d
00000040: 0d84 32bd ea84 d6bd f928 da3c fafa e7bd
00000050: cfa0 7ebd bf0f 2bbe f2e6 edbd 13b9 45bc
00000060: bd76 ef3d 8edf ce3d 370a 603d 0646 053e
00000070: bb61 033e a76b 953d 5e75 123d 2bc7 da3d
00000080: 1a0d 9b3d 5101 db3d ad9f 12bd 91aa 533c
00000090: 3320 56bd bc3a ff3d 163e 513c 4ca8 97bb
000000a0: 3a90 bfbd 03f9 c73d 5076 12bd 6b79 cdbd
000000b0: 61ff 5abd 3be7 f43d 7930 d43d df64 433d
000000c0: 2b77 19bd 63ac 133e 751d 10be 00d4 ea3d
000000d0: ee0b 983c c853 d5bd caa9 2fbe a558 d13d
000000e0: 81f8 1d3d 03be 013e 7774 1cbe 3107 eabd
000000f0: be07 bc3d 7514 bf3d 7917 cfbd e57d e93d
00000100: 0742 2f3e c1f2 d6bd 694f 933d c617 22be
00000110: e256 e63d 97bf 51bd 78c3 aebd 126e 1b3e
00000120: f660 a0bc 640e 733c 3f01 b6bd 7aad be3d
00000130: c106 56bd 734f 0dbe c3d1 7a3d e146 143e
00000140: 6ebf 1fbe 964a 423d 675f c43c 4607 c8bd
00000150: dd91 f93d 2128 e83d 6659 b0bc 37e6 183e
00000160: 6c2b 0fbc ec46 e23d 4827 773d 504a 9dbd
00000170: 0c67 733a 79b1 7e3d 1721 d43d 044e ac3d
00000180: 46a8 9dbd a8e0 053d 5e00 203d ceab 10be
00000190: 5a0d 3cbd 66c0 2b3e 65d9 2a3d 12d0 21be
000001a0: c583 1b3e 2ef9 023e 4382 b4bd 4a2a 8cbd
000001b0: a235 febc 5e8f 97bd b0ae bbbd 957a 013e
000001c0: 828f 4a3d f9c5 a13c 7501 febd c162 0d3e
000001d0: 8b16 143e d063 583c 4bd6 98bd 1db2 1cbe
000001e0: 48ae a6bd fcdf 3abd c25d 4fbd 48ab 183e
000001f0: 8b63 b93d 1d0e 413d 0d88 383c 0fac af3d
0.0016630956 0.008461344 -0.13046616 0.16158237 -0.18458268 -0.06494192 0.08326789 -0.15548415
0.010113049 -0.037795443 0.018956028 0.024831673 0.029807659 0.03151376 -0.012880714 0.04342153
-0.043582965 -0.1047457 0.026630865 -0.11327167 -0.062165078 -0.16705225 -0.11616315 -0.012068051
0.116925694 0.101012334 0.05469724 0.13014993 0.1283025 0.07295924 0.03575646 0.106825195
0.07570858 0.106936105 -0.03579681 0.012919084 -0.0522768 0.124623746 0.01277115 -0.004628217
-0.09353681 0.09764292 -0.035757363 -0.10032924 -0.053466205 0.11958166 0.10360808 0.04770362
-0.037467163 0.14421229 -0.14073737 0.11466217 0.018560376 -0.10416371 -0.17154613 0.10221986
0.03856707 0.1267014 -0.15278803 -0.11427153 0.09181164 0.09330074 -0.10111899 0.114009656
0.17115031 -0.104955204 0.07192881 -0.15829381 0.1124704 -0.051208105 -0.085333765 0.15178707
-0.019577485 0.014834974 -0.088869564 0.09310432 -0.052252535 -0.13799839 0.0612352 0.14480163
-0.15600368 0.047434412 0.023971273 -0.09767012 0.12186024 0.11335779 -0.021527003 0.1493157
-0.00873838 0.110486835 0.060340196 -0.076801896 0.00092850695 0.06218097 0.10357874 0.08413318
-0.07698111 0.032684952 0.03906285 -0.14128038 -0.04591117 0.16772613 0.04171123 -0.15802029
0.15186985 0.12790367 -0.08813908 -0.068440035 -0.031031433 -0.07400392 -0.09164178 0.12644418
0.049453266 0.019747721 -0.12402622 0.13807203 0.14461724 0.013207391 -0.07462748 -0.1530232
-0.0813871 -0.045623764 -0.050626524 0.14909089 0.090521894 0.0471326 0.011262906 0.085777394

conv_layers.1.att_dst f4 [1, 1, 128]
00000000: 80fb 963d f837 86ba 14f9 31bd e826 383d
00000010: a227 f63d deba 733d 785e adbd b4ff 82bd
00000020: 36fd 23bd ff72 e5bc 9b48 373c 4a2e 3ebc
00000030: cb09 98bc ee6b 0ebd 67cc 13bc eced 22bd
00000040: bf6b ee3b a24d 7d3c be36 a937 eb4b 00bd
00000050: eb2f c5bb a79f 62bd 5175 f2bd 6b3e 74bd
00000060: fe72 a2bc ba17 8bbd 53ab 8d3d 54c0 eebc
00000070: 652b 5bbc 8e7a cb3a f7d8 16bd ae8d 3f3d
00000080: af92 2a3c 56a8 c33c d92e bcbc 3a37 c7bc
00000090: 63a3 b03b 98cc 9b3d 6492 9ebd b995 113e
000000a0: 09d9 ea3b 1cc7 703d b4f1 9fbd b034 ba3c
000000b0: bd81 d33b 3797 97bd c6f8 443d a6bf a63c
000000c0: 7728 00bd a497 233c fff6 ad3d 459d b33d
000000d0: 8bab 92bc c415 2a3d d522 b1bd 61cf 263b
000000e0: 115e 103d 350e 3bbd fb7e 733d 24ff 823d
000000f0: 9451 5bbd 95f9 1bbc b619 9c3c d266 9dbd
00000100: f468 ef3c 7b64 e93d 96c7 5c3c 8495 05bd
00000110: e3ee ad3c 5a75 8f3c 41f7 96bc 10af 79bc
00000120: 680e 8b3d 378c 5abc 6702 d23d 311d 27bc
00000130: 0f4a 083d 43a3 59bb 0683 9dbc 44dd 8dbd
00000140: a595 003d 4a02 60bd a116 91bc d341 533c
00000150: d54d b3bc df21 963b 1bf8 48bd 4cb7 2ebd
00000160: ab9a 87bc e86b 4a3d 1166 fc3a 0923 76bc
00000170: c107 623d d70f 193d 1794 823d e1e3 08be
00000180: d23c 59bd d052 473c bcd8 0b3d fbd6 46bd
00000190: daca 0ebd 2d1f 96bd b198 bdbc 78a1 a9bd
000001a0: 26b9 cdbd dd4b 83bd fe7b 693d 4155 3ebd
000001b0: 37cc a23c 5683 b93c 001b 65bd e5ba 39bc
000001c0: 8554 cbbb 4380 843d c4d0 ab3c 585a 653c
000001d0: a391 cdbc e088 5c3d 08dc 1abd 926f bb3c
000001e0: b4a9 49bc 9720 9ebd c15a 073d 0890 bb3c
000001f0: 11b0 20bd e6df 123e d304 a33d ef0b 9c3c
0.073721886 -0.0010240069 -0.04345043 0.04495898 0.12019278 0.059504382 -0.08465284 -0.06396428
-0.040036403 -0.028008936 0.011186744 -0.011607716 -0.018559357 -0.0347709 -0.009020901 -0.03977768
0.007276028 0.015460404 2.0171861e-05 -0.0313224 -0.006017675 -0.055328038 -0.118387826 -0.05962984
-0.019830223 -0.06791635 0.06917443 -0.029144444 -0.013377045 0.0015524195 -0.036828008 0.046765976
0.010410949 0.02388398 -0.022971557 -0.024318326 0.005390571 0.076073825 -0.077427655 0.14217271
0.007166986 0.058783635 -0.07809773 0.022730201 0.006454675 -0.07401889 0.04808881 0.020355057
-0.03128859 0.009984884 0.084943764 0.08770231 -0.017904064 0.041524664 -0.08649222 0.0025453197
0.03524596 -0.045667846 0.05944727 0.063963205 -0.053544596 -0.009519954 0.019055229 -0.07685627
0.02922485 0.11396118 0.013475319 -0.032613292 0.021232074 0.017512012 -0.018428447 -0.015239492
0.06789857 -0.013339094 0.102543645 -0.010199831 0.033273753 -0.0033208884 -0.019227516 -0.06926969
0.031392712 -0.054689683 -0.017710986 0.012894112 -0.0218877 0.0045816745 -0.049064737 -0.042655274
-0.016553244 0.049419314 0.0019256492 -0.0150230015 0.055183176 0.03736862 0.06375902 -0.13368179
-0.05303652 0.01216574 0.03414224 -0.048544865 -0.034861423 -0.07330165 -0.023144098 -0.08282751
-0.1004508 -0.06410954 0.057003014 -0.046468023 0.019872768 0.022645634 -0.055933952 -0.011336063
-0.006205144 0.064697765 0.02097357 0.01399859 -0.025093859 0.05384147 -0.037807494 0.02288035
-0.012308527 -0.0772106 0.033045534 0.022895828 -0.03923041 0.14343223 0.079599045 0.01904866

conv_layers.1.bias f4 [128]
00000000: 5099 063c 628f 053c 35c6 d9bb 3668 dd3b
00000010: 7eba 0abc 24f2 093c e693 d1bb e034 08bc
00000020: 3cd6 ca3b 73cc c3bb 79e0 ad3b a757 dfbb
00000030: 767f 80bb 9300 b6bb 5da5 043c c3ed d7bb
00000040: 80fe c43b 3f63 d63b da36 063c 29a9 d13b
00000050: 2819 fb3b b6c9 e13b 6949 cd3b a4b8 d23b
00000060: e065 cbbb cb40 083c fde0 d23b b57e ccbb
00000070: f925 d9bb b86e c6bb 2cda 033c 8e31 053c
00000080: c342 063c 4672 debb 2d2c d3bb faea cbbb
00000090: 5fe5 f53b 3dd3 e838 636b 843b 9d6f cb3b
000000a0: 7e06 c63b 3531 d13b 0c9d cfbb 512c d93b
000000b0: 5eba 8e3b 5eb1 cfbb d68d c03b 932b ce3b
000000c0: 5270 b8bb 7697 cfbb 74a5 c53b c5f2 d13a
000000d0: 409a cdbb dfc9 093c 98ea e3bb 9eee d3bb
000000e0: e5ba d6bb 73c2 eebb b766 f33b 0a78 cfbb
000000f0: 5eed d7bb bc43 d1bb 19b3 cd3b 591a ce3b
00000100: ff43 e33b ff67 063c 2395 e1bb 6fed 05bc
00000110: 6ff8 09bc 6515 d2bb 8d94 cbbb e9fd d33b
00000120: 42bd d1bb 27be d93b cd4e d23b 90f9 c0bb
00000130: 14bc cd3b 2497 00bc 7295 013c 3551 0cbc
00000140: 6512 d1bb aab9 cebb 0636 153b 5502 073c
00000150: 9a78 cebb 19a7 d13b f798 d4bb 4ea7 d73b
00000160: 7113 033c 2260 07bc 961d ff3b 1f1b 043c
00000170: 3be4 ddbb 4400 073c cff6 c8bb 71ba 083c
00000180: def9 ce3b f613 763b bb8b d63b e16c da3b
00000190: 8112 02bc 9967 093c 37ab 76bb cd32 c7bb
000001a0: 61eb cebb 4b6d dabb 2eff 9c3b 1aca d6bb
000001b0: 5ee9 d5bb e652 093c d140 ccbb c712 ccbb
000001c0: 3099 083c f1f0 b1bb c174 c63b ee18 9ebb
000001d0: 65a2 a1bb ee24 0ebc 30f1 ccbb dbd5 bf3b
000001e0: be83 bcbb 7090 a4bb 9efe d03b 99df cfbb
000001f0: 50b8 d7bb b367 e3bb 1da5 0d3c 00dc ce3b
0.0082152635 0.008151861 -0.0066459426 0.0067568077 -0.008467315 0.008419547 -0.0063958047 -0.008313388
0.0061900895 -0.0059753 0.0053063002 -0.006815869 -0.0039214445 -0.0055542677 0.008096066 -0.0065896227
0.006011784 0.006542593 0.008191789 0.0063983393 0.007662911 0.006890501 0.0062648547 0.0064307023
-0.006207213 0.008316229 0.006435512 -0.0062406906 -0.006626841 -0.006055679 0.008047622 0.008129491
0.008194628 -0.006788525 -0.006444475 -0.0062230797 0.00750415 0.00011101968 0.004041122 0.0062083737
0.0060432544 0.0063840398 -0.00633586 0.0066275974 0.004355713 -0.0063382825 0.005876283 0.0062918155
-0.005628624 -0.006335194 0.0060316864 0.0016017786 -0.0062744915 0.008409946 -0.006955456 -0.0064676544
-0.0065530413 -0.0072863637 0.007428016 -0.0063314484 -0.0065895757 -0.0063862484 0.0062774536 0.006289762
0.006935596 0.008203506 -0.0068842336 -0.008174284 -0.008421048 -0.006411242 -0.006212777 0.0064694774
-0.006400735 0.0066449824 0.006418085 -0.005889125 0.006278524 -0.007848535 0.007909166 -0.008564283
-0.0063803666 -0.006308754 0.0022767796 0.008240302 -0.006300998 0.0063980934 -0.0064879614 0.0065812236
0.008000241 -0.008262666 0.0077855093 0.008063107 -0.006771592 0.008239809 -0.0061329375 0.008345232
0.0063164076 0.0037548519 0.006547419 0.0066658114 -0.007938982 0.008386516 -0.0037638673 -0.006079054
-0.0063146804 -0.006665861 0.004791162 -0.006554854 -0.0065280637 0.008381581 -0.0062333127 -0.0062278244
0.008337304 -0.005430334 0.0060563986 -0.004824749 -0.004932689 -0.008675797 -0.0062543377 0.005854351
-0.0057530096 -0.005022101 0.006378009 -0.0063437936 -0.006583251 -0.006939852 0.008645323 0.006312847

conv_layers.1.lin.weight f4 [128, 128]
00000000: 94e6 7abd 24fc 153e b13e 6dbd 349e e53d
00000010: b359 41bb f888 03be fade 153e 8328 1b3d
00000020: 1b0d 843d 2bfa 103d f60d 3cbd 7287 963d
00000030: 9eab 1e3c 4e15 a3bd 23d8 163c db51 03be
00000040: c560 c43b 0c01 6b3d c974 f2bd ef3d aa3d
00000050: 24dd 55bd 29c8 e8bc 44e6 ef3d b476 e53d
00000060: 44c5 90bd b320 7fbc 7a58 eebd 0b0a 53bd
00000070: 6fed e13d 6e50 e5bd 3636 bdbc fedb 873b
00000080: 2e3e afbd 1dbb 0e3d 67df ebbd 4c2b 033e
00000090: 23c6 c83d 777e 85bd 69bd 43bd bc51 c7bd
000000a0: 98cf 523c 3319 0ebe c9ba f93d 896e 513d
000000b0: c128 98bc be65 8fbd b249 483d 9e69 f9bd
000000c0: c0a2 1c3d 0711 bc3d a0d4 d23d f766 10bc
000000d0: 4a12 0c3e 57a3 f9bd a393 ecbd 6164 00be
000000e0: 07c5 bbbc be5d cebb 3bb0 d83b b5d0 e6bd
000000f0: 0d7c 0fbe 435f 043b 7e11 b8bd db95 77bd
00000100: b459 1a3e fb58 bb3d dfc4 083d d226 0dbe
00000110: 0904 72bd 5a8a 60bd fe76 88bd 18ed 91bc
00000120: 040a 163e 46dd d9bd fa9f 0e3e 7c31 ac3c
00000130: 712f e93d c75d e53d 494d 213e e6ae 013c
00000140: 2c40 b63d 2ceb 7bbd bc99 42bd 186b d5bd
00000150: 6489 863b 6218 abbd 0b9c a83c af77 c73c
00000160: 16bc 043e a76d 49bd b033 8abb 073e ca3d
00000170: 8a5e 93bd 89f0 10be 9264 b7bd 0345 d3bd
00000180: 45ca 54bd 9a84 ffbc 9d35 32bd 1b65 a4bd
00000190: 0fac fe3c b0cf 08be 165e 123e e5ac dcbd
000001a0: 419c 643d 30a3 03bd 22c1 213c 74eb aebd
000001b0: 4eab 37bd a9f6 c0bd 801f 0f3b bbae 10be
000001c0: 990f 0a3e 8a90 4dbd e648 dfbd 5a89 32bd
000001d0: c3d5 393c 2c96 1c3e 77a3 bdbd e39a e3bd
000001e0: 5980 183d 1ebd 8aba 9591 03bd 514a 4f3d
000001f0: 7247 97bd 58ec d2bc 7267 1d3e f1a3 b7bd
00000200: 86d1 3ebc 69bf 373d 1a57 05bc ae69 233d
00000210: fab8 5e3d f272 8b3d 6e3d 0cbe 9673 b43c
00000220: e072 cf3c 4b19 6fbd c5db c1bc af87 90bd
00000230: bc85 0c3e c182 f9bd 8b08 11be 9235 abbd
00000240: 1db5 023e c6b6 72bd 8af7 15bd 97a1 3abd
00000250: fd5f e2bd 22e2 74bd 3f70 d1bb bc92 9cbd
00000260: 758f ef3c a502 e2bd ee7f ce3a 2635 0a3d
00000270: 28c9 9ebd c69f cebb 28b2 0d3e d963 f43d
00000280: 6f8f 053e 1a40 e33b 00e8 993d c129 0b3d
00000290: cde0 213e a5dd 203e 3b97 4ebd 9d05 13be
000002a0: 234a a9bc a9d5 0ebd 5557 50bb 9195 823d
000002b0: 2b46 a5bd 5792 013e e802 35bd cbf6 203e
000002c0: b744 5fbd cf52 a8bd 884c 1f3b de7b b73d
000002d0: c7f0 c1bc f169 00be 47cc b73d 6aa9 e8bd
000002e0: 4382 c53c 6c06 973d 392d 9ebd ae8d 4c3d
000002f0: 5df7 12be 8947 163e fd82 9e3d 17cb 3cbd
00000300: 7909 a23b 5abf f43d a404 b83d a1d7 e13d
00000310: 4eaf a2bd 7267 1a3d 215e 4f3d bc95 4cbd
00000320: 1a85 943c 9a35 863d 5467 d9bd cd1a 4dbd
00000330: dbf4 93bc 4683 033e fe87 d0bd 17bc 0d3d
00000340: 38ec 983d 5678 4f3d c42b cb3d 25fa 6fbd
00000350: 1040 0fbd 17c8 a4bd 8021 d3bd 46e5 1c3d
00000360: 4722 9f3c dd70 d43c 1c4f c73c 5aaa 5dbd
00000370: 1175 c4bd 1659 09bc 292b 0bbe 1835 a03d
00000380: 937e 843b a7c2 813d 03e6 123e 4b2c 143d
00000390: d40e b63b ab8e 6f3d 0815 013a afe6 813d
000003a0: a79b c9bd 0eec 7ebc 7155 77bb c7e1 72bd
000003b0: ee33 4fbd e3c8 81bd 1afc eebd bd66 553d
000003c0: bfb5 b73d 3b5e 903d 4cde 1a3e 9bc5 f13c
000003d0: 7086 34bd 8ea2 203e 64ca d0bd e1e3 2c3c
000003e0: 9577 be3d dfd4 3a3d bb2d 88bd 9687 0dbd
000003f0: 09a1 273d 0bc0 f7bd 2de3 14bd 9339 0cbe
-0.061255053 0.14646965 -0.057921115 0.112118155 -0.0029502928 -0.12845218 0.1463584 0.03788043
0.06447812 0.03539483 -0.04591175 0.07350053 0.009684471 -0.07963048 0.009206804 -0.12824194
0.005992981 0.057374045 -0.11838681 0.08312594 -0.05221285 -0.028415756 0.117138416 0.112042814
-0.070688754 -0.015571761 -0.11637969 -0.05152325 0.11031615 -0.11196981 -0.023097139 0.004146098
-0.08556782 0.034846414 -0.1151722 0.12809485 0.098034166 -0.06518262 -0.047788057 -0.097323865
0.012866877 -0.138768 0.121938296 0.051130805 -0.01857412 -0.07001828 0.048898406 -0.12178348
0.038241148 0.09182935 0.10294461 -0.008813611 0.13678852 -0.12189358 -0.11551597 -0.12538292
-0.022921098 -0.006297796 0.006612805 -0.112702765 -0.14012165 0.0020198382 -0.08987711 -0.060445648
0.15073282 0.09147831 0.033390876 -0.1378434 -0.05908588 -0.054819442 -0.06663321 -0.01781325
0.14652258 -0.10637908 0.13928214 0.02101969 0.11386002 0.11199527 0.15752138 0.007915234
0.088989586 -0.061503574 -0.047509894 -0.10420817 0.0041057337 -0.0835426 0.02058222 0.024349062
0.12962374 -0.04917684 -0.0042175874 0.09875112 -0.07195766 -0.14154257 -0.08954729 -0.10315897
-0.05195071 -0.031191159 -0.04350816 -0.08027097 0.031087903 -0.13360476 0.14293703 -0.107751645
0.055813078 -0.03213805 0.009872707 -0.08541003 -0.044841103 -0.09422047 0.0021838844 -0.14129154
0.13482513 -0.05018667 -0.10902576 -0.04358802 0.011342469 0.15291661 -0.09259694 -0.11113527
0.037231777 -0.0010584926 -0.03212126 0.050607983 -0.07386674 -0.025747463 0.15371493 -0.08966816
-0.011646634 0.044860277 -0.008138442 0.039895706 0.054375626 0.068090335 -0.13695309 0.022027772
0.025323331 -0.05837373 -0.023664365 -0.070571296 0.1372289 -0.121831425 -0.14163415 -0.08359827
0.12764402 -0.059256338 -0.036613025 -0.04556426 -0.110534646 -0.05978597 -0.0063915546 -0.07645175
0.02924321 -0.11035661 0.0015754679 0.033742093 -0.07753211 -0.0063056676 0.13837492 0.11933107
0.13042997 0.0069351317 0.075149536 0.033975367 0.15808411 0.1570955 -0.050437193 -0.1435761
-0.020665234 -0.03487173 -0.0031790335 0.06376184 -0.08070024 0.1265348 -0.044192225 0.15719144
-0.05450889 -0.082189195 0.002430709 0.08959173 -0.023674382 -0.12540413 0.0897451 -0.11360438
0.024109965 0.07374272 -0.07723469 0.049939804 -0.14352174 0.14675726 0.07739828 -0.04609212
0.004944977 0.1195056 0.0898526 0.11027456 -0.07943593 0.03769631 0.050626878 -0.049947485
0.018129874 0.065531924 -0.106154114 -0.050074387 -0.018061092 0.12843046 -0.101821885 0.034603205
0.0746693 0.05065187 0.09920457 -0.058588166 -0.034973204 -0.080459766 -0.10309124 0.03830459
0.019425524 0.025932724 0.024329714 -0.054117538 -0.09592641 -0.008383056 -0.13590683 0.07822627
0.004043409 0.06335955 0.14345555 0.036175054 0.005555967 0.05848567 0.00049240934 0.063428275
-0.098441415 -0.0155592095 -0.0037740136 -0.05929735 -0.050586633 -0.06337144 -0.11669178 0.052099932
0.08970212 0.07049223 0.15123862 0.029513171 -0.044073522 0.1568701 -0.10194853 0.010552377
0.09300152 0.045613166 -0.066493474 -0.034553133 0.04092506 -0.12097176 -0.036349464 -0.13693838
